GAIA/gaia_bot/modules/local/models/task_detect/prompt_to_response/TrainData.pth (torch, 6759 bytes, 6 tensors)

l1.weight f4 [8, 91]
0.14071327 0.10770278 0.21481413 -0.11579265 0.16411535 0.13635461 0.044557415 -0.354701
0.13812071 0.24377853 0.3270428 0.17021056 0.20304133 0.07534453 0.15908134 0.28251785
0.1469499 0.20459428 0.0019568591 0.005343954 -0.32761487 -0.14626114 0.22825986 -0.21765678
0.099484004 -0.3969654 0.065072484 0.029122792 0.40645182 -0.21957979 0.3833007 0.37774074
0.07337195 -0.19453733 0.11177412 0.3371848 0.09075682 0.1241492 0.06381852 0.23338762
-0.31026825 -0.16922279 0.040990364 0.16577667 0.18895584 0.16109549 0.048410278 0.186259
0.16431184 0.12588911 0.10571017 0.05580707 -0.07296937 -0.018558154 0.13997468 0.028170636
0.21820028 0.43378448 0.12693663 0.030361373 0.10689489 0.15079445 -0.06782848 0.039099634
0.033491574 0.13484333 -0.012092669 0.064961135 0.1513406 0.06566253 -0.36054692 0.16534324
0.024436597 0.1944849 0.3746746 -0.36278096 0.32668737 -0.2690845 0.21106735 0.18294773
0.1639643 0.13161592 0.098673314 0.14198342 0.35635388 0.20428222 0.08222006 0.011279797
0.15235408 0.01350288 0.16111848 0.042115513 0.45387787 0.1311935 -0.37328118 0.22651261
0.107156344 0.054620434 -0.27819085 0.052174177 0.084940225 -0.3868735 0.007197243 0.26610535
-0.13980597 0.44841766 -0.31461087 0.033020183 -0.007050094 0.06276785 0.046935484 -0.42336488
-0.20782536 -0.117234655 -0.25639623 0.14868447 -0.46680397 0.10700719 0.11009637 0.1733797
-0.20400803 -0.4202402 0.32796544 0.032687146 -0.19037439 0.561809 0.1505514 0.12874481
0.39491606 0.42871603 -0.46923438 -0.47509947 -0.051816855 0.05829974 0.13938347 -0.010034806
0.052617315 0.21045843 0.12595545 0.29942182 -0.30706823 0.26754355 0.056208275 -0.16556801
0.015873367 -0.0015331351 0.027632719 0.027905991 -0.1480595 0.0492351 0.12062442 0.25587735
0.018190486 -0.11637766 0.047603488 0.15614048 0.06245247 -0.019751715 -0.043959405 0.035683278
-0.014357306 -0.47366145 0.06757051 0.09659204 0.06534373 -0.08587859 -0.36358738 -0.30738294
-0.3532803 0.0011854559 0.18614091 0.12696743 0.13812967 0.057727624 0.05808322 0.2126069
0.25073695 0.14796475 0.000941719 0.38697776 0.14110076 0.07202798 0.19777578 0.27326906
0.05694328 0.22778943 0.15396951 0.17082311 0.1082517 0.20967947 0.0917729 0.17618053
-0.43582892 0.1405221 0.29025492 -0.23443642 0.23244512 -0.064130574 0.089923 0.08044496
0.05074939 0.12867814 0.34469804 0.29443955 -0.03039067 0.40481085 0.025929708 0.5278123
0.16229315 0.18273257 0.089248076 0.33761308 -0.32566255 0.18834737 0.086308695 0.40750217
0.26698023 0.25500968 0.43342754 0.12982905 0.2531749 -0.31769282 0.3489704 0.37943172
0.04447119 0.092414774 0.042861342 0.16416101 0.21187714 -0.0012221669 0.3610108 -0.03629302
0.1608756 0.046222627 0.3036876 0.06453839 0.061757784 0.013971093 0.091978565 0.045863118
0.066332996 0.08962234 0.19672172 0.1589948 0.36200044 0.02495718 0.19626807 0.18230471
0.02097102 0.099492565 0.13907583 0.14796421 0.3455907 0.104936 0.028596304 0.066685885
00000000: 2417 103e 4693 dc3d 3cf8 5b3e b224 edbd
00000010: db0d 283e 8ba0 0b3e d681 363d 5f9b b5be
00000020: 846f 0d3e 14a1 793e 2772 a73e ad4b 2e3e
00000030: 11ea 4f3e 3c4e 9a3d 38e6 223e 2ea6 903e
00000040: 097a 163e 2a81 513e a63e 003b 561c af3b
00000050: 23bd a7be 7bc5 15be f4bc 693e 6be1 5ebe
00000060: 45be cb3d 0d3f cbbe b944 853d ec92 ee3c
00000070: 741a d03e 86d9 60be fd3f c43e 3c67 c13e
00000080: 0844 963d cb34 47be d4e9 e43d 7ca3 ac3e
00000090: b6de b93d f041 fe3d 49b3 823d 2afd 6e3e
000000a0: 7bdb 9ebe bd48 2dbe 83e5 273d 5cc1 293e
000000b0: a47d 413e 37f6 243e db49 463d aeba 3e3e
000000c0: 5d41 283e 13e9 003e 937e d83d f495 643d
000000d0: f770 95bd 4507 98bc 8655 0f3e 1bc6 e63c
000000e0: e56f 5f3e 0019 de3e adfb 013e 6ab8 f83c
000000f0: b5eb da3d dc69 1a3e a8e9 8abd f026 203d
00000100: 762e 093d 5f14 0a3e 5420 46bc 580a 853d
00000110: 08f9 1a3e 147a 863d 9b99 b8be bd4f 293e
00000120: 422f c83c 0d27 473e 59d5 bf3e 6dbe b9be
00000130: 9143 a73e 72c5 89be 0a22 583e a656 3b3e
00000140: 42e6 273e 53c6 063e 3c15 ca3d 1a64 113e
00000150: 0474 b63e 5c2f 513e fe62 a83d e6ce 383c
00000160: b502 1c3e 2f3b 5d3c 3efc 243e 5181 2c3d
00000170: ae62 e83e 9757 063e b61e bfbe ecf2 673e
00000180: c974 db3d adb9 5f3d 086f 8ebe 97b4 553d
00000190: 24f5 ad3d 4914 c6be dad6 eb3b f63e 883e
000001a0: 4c29 0fbe 0097 e53e ad14 a1be 2c40 073d
000001b0: 7a04 e7bb 6e8c 803d 6c3f 403d 48c3 d8be
000001c0: 2cd0 54be b918 f0bd 5e46 83be be40 183e
000001d0: ee00 efbe 9626 db3d 357a e13d 738a 313e
000001e0: 7be7 50be b929 d7be 16eb a73e f5e2 053d
000001f0: 81f1 42be b7d2 0f3f 252a 1a3e aed5 033e
00000200: 7032 ca3e ab80 db3e 7d3f f0be 3d40 f3be
00000210: e93d 54bd b5cb 6e3d 8aba 0e3e 0769 24bc
00000220: 4185 573d 6a82 573e 77fa 003e d14d 993e
00000230: 0c38 9dbe 78fb 883e a63a 663d a98a 29be
00000240: dd08 823c 7af3 c8ba 035e e23c 1b9b e43c
00000250: e99c 17be bfaa 493d f009 f73d 5b02 833e
00000260: 3704 953c 6957 eebd e0fb 423d 4ae3 1f3e
00000270: 29ce 7f3d 59ce a1bc c70e 34bd a128 123d
00000280: e83a 6bbc c183 f2be 6862 8a3d 0cd2 c53d
00000290: efd2 853d 1de1 afbd 2028 babe 4c61 9dbe
000002a0: 28e1 b4be 4d61 9b3a b99b 3e3e c003 023e
000002b0: dd71 0d3e cd73 6c3d ace8 6d3d a0b5 593e
000002c0: 9860 803e 1284 173e b1dd 763a f321 c63e
000002d0: b87c 103e 6883 933d bc85 4a3e ece9 8b3e
000002e0: 5b3d 693d a241 693e 2faa 1d3e 41ec 2e3e
000002f0: 11b3 dd3d 37b6 563e 6ef3 bb3d ab68 343e
00000300: f824 dfbe 06e5 0f3e 4b9c 943e 1a10 70be
00000310: 1806 6e3e e456 83bd 8d29 b83d 54c0 a43d
00000320: 98de 4f3d 34c4 033e 437c b03e c8c0 963e
00000330: dbf5 f8bc 5e43 cf3e 8a6a d43c b51e 073f
00000340: 2d30 263e 3f1e 3b3e b2c7 b63d 9fdb ac3e
00000350: 3ebd a6be 22de 403e 9dc2 b03d 20a4 d03e
00000360: a2b1 883e a190 823e 37ea dd3e e8f1 043e
00000370: 24a0 813e a2a8 a2be 40ac b23e e044 c23e
00000380: 6c27 363d f543 bd3d 608f 2f3d d319 283e
00000390: 52f6 583e 1e31 a0ba 68d6 b83e fda7 14bd
000003a0: 93bc 243e f053 3d3d f17c 9b3e b42c 843d
000003b0: bbf5 7c3d 03e7 643c 425f bc3d f7da 3b3d
000003c0: 98d9 873d eb8b b73d 6b71 493e 88cf 223e
000003d0: 1f58 b93e 0073 cc3c 7ffa 483e 16ae 3a3e
000003e0: 6bcb ab3c c2c2 cb3d e569 0e3e ee83 173e
000003f0: 44f1 b03e b0e8 d63d cc42 ea3c 9c92 883d

l1.bias f4 [8]
0.67581445 0.8200662 0.84198725 0.39469287 0.2054471 0.08518038 0.66761786 0.80609024
00000000: 2d02 2d3f dcef 513f 7a8c 573f 2f15 ca3e
00000010: b960 523e 0d73 ae3d 01e9 2a3f ee5b 4e3f

l2.weight f4 [8, 8]
0.23367758 0.301043 0.22711645 0.58847106 0.3970749 0.07651752 0.65465593 -1.0311449
0.64590573 1.492759 0.48993254 -0.48102054 0.44832942 -0.7498883 1.6651107 -0.2852741
-0.08603297 0.20171577 -0.006585666 0.51007926 1.8611193 0.34778166 1.2855442 -0.7851015
-0.1707788 0.6177646 1.3254298 0.9740083 -0.74020576 -0.73654497 -0.15842679 1.1028264
-0.13479489 -0.22782023 -0.27705404 0.018746376 0.15946552 0.19077733 -0.1192908 -0.0429011
0.7436951 -0.8087328 0.39478067 1.484001 0.66866016 1.4141173 -0.8762302 -0.24038717
0.1613983 0.087726906 0.23827031 0.33520806 0.71231544 0.039549578 0.43511602 -0.7343846
1.6832199 1.3496951 0.086719796 -0.5276695 0.14154519 0.9314482 0.9459384 0.118249066
00000000: 2d49 6f3e 4f22 9a3e 3791 683e 0aa6 163f
00000010: 674d cb3e 38b5 9c3d 8897 273f 8efc 83bf
00000020: 145a 253f ba12 bf3f 70d8 fa3e 5348 f6be
00000030: 6f8b e53e aef8 3fbf 5922 d53f 720f 92be
00000040: 0e32 b0bd 948e 4e3e 92cc d7bb 8e94 023f
00000050: 2839 ee3f 7010 b23e b68c a43f 69fc 48bf
00000060: a3e0 2ebe d225 1e3f afa7 a93f 9c58 793f
00000070: 207e 3dbf 368e 3cbf a23a 22be 6a29 8d3f
00000080: ac07 0abe b549 69be 07da 8dbe 0092 993c
00000090: ee4a 233e 225b 433e bc4e f4bd 10b9 2fbd
000000a0: cd62 3e3f 1d09 4fbf b120 ca3e bff3 bd3f
000000b0: 502d 2b3f cc01 b53f 9f50 60bf 0e28 76be
000000c0: 9945 253e 2aaa b33d 22fd 733e 64a0 ab3e
000000d0: 4e5a 363f bdfe 213d 87c7 de3e a100 3cbf
000000e0: c073 d73f cfc2 ac3f 269a b13d 5915 07bf
000000f0: 39f1 103e 6473 6e3f 0529 723f 912c f23d

l2.bias f4 [8]
-0.112332344 0.51978445 -0.51980084 0.3935976 -0.21674378 0.19424659 -0.05571651 0.33555394
00000000: 800e e6bd 9810 053f ab11 05bf a085 c93e
00000010: 15f2 5dbe 94e8 463e ff36 64bd bacd ab3e

l3.weight f4 [4, 8]
-0.59525186 -0.8424237 -1.7789953 -1.4846389 0.17052916 0.7936539 -0.7696457 0.65879947
0.4304203 0.09008222 1.4718266 -1.2131529 -0.23097804 0.33356634 0.60745585 -0.74297655
-0.717624 0.9884609 -1.9288428 -0.05126077 0.038257957 -1.2675427 -0.63677937 0.6501003
-0.56899464 -0.61488616 -0.21486677 0.8550258 0.041662335 0.46396747 -0.39980367 -1.5440861
00000000: 6d62 18bf 14a9 57bf 1eb6 e3bf a608 bebf
00000010: 329f 2e3e e72c 4b3f 8007 45bf 15a7 283f
00000020: 0d60 dc3e 077d b83d d064 bc3f 9848 9bbf
00000030: 8285 6cbe 35c9 aa3e 3a82 1b3f b633 3ebf
00000040: 35b6 37bf c60b 7d3f 52e4 f6bf d0f6 51bd
00000050: 60b4 1c3d d73e a2bf f903 23bf f96c 263f
00000060: a2a9 11bf 2e69 1dbf 0906 5cbe f9e2 5a3f
00000070: 20a6 2a3d 258d ed3e 11b3 ccbe 9da4 c5bf

l3.bias f4 [4]
-0.14385337 -0.29555953 0.045982447 -0.26971182
00000000: 4c4e 13be 9453 97be 1758 3c3d ab17 8abe
