indi_model/task_assistant/prompt_to_response/TrainData.pth (torch, 12188 bytes, 6 tensors)

l1.weight f4 [8, 200]
0	0x3e807338	0.25087905
1	0x3f2c074b	0.6719863
2	0x3e626575	0.22109015
3	0x3e926483	0.2859231
4	0x3ebc80cf	0.36817023
5	0xbe9fbdeb	-0.31199583
6	0x3eb335a5	0.35001865
7	0x3dd68642	0.104748264
8	0x3e4bf61b	0.199181
9	0x3fa571b2	1.2925322
10	0x3f1a6906	0.60316503
11	0x3e01e993	0.12686758
12	0x3e4e7492	0.20161656
13	0x3d66ab32	0.05631561
14	0x3e08d1c3	0.13361268
15	0x3ea240c5	0.3169004
16	0xbe63bf6c	-0.2224099
17	0x3e0cc1dd	0.13745828
18	0x3e838cca	0.2569335
19	0x3dcfa2b4	0.10138455
20	0x3e970838	0.29498458
21	0x3e8cfd9e	0.27537245
22	0x3ed635d7	0.41837952
23	0x3bcd8b87	0.0062727365
24	0x3e85a748	0.26104188
25	0x3f2656e5	0.6497634
26	0x3ee82485	0.45340362
27	0x3ee9139e	0.4552278
28	0x3e7351ea	0.23761716
29	0x3e93a033	0.2883316
30	0x3ea1f4d1	0.31632093
31	0x3e9deec3	0.30846223
32	0xbd8ce407	-0.0687943
33	0x3e3ebf71	0.18627717
34	0x3e4f9ee9	0.20275463
35	0x3e5bb834	0.21456987
36	0x3f3c171f	0.7347278
37	0xbdc9e857	-0.098587684
38	0x3e2ba8cd	0.16763611
39	0x3e2d305b	0.16912977
40	0x3e2f5e67	0.17125855
41	0x3e6afbbd	0.22947593
42	0xbec3de30	-0.38255453
43	0x3e1e1b4a	0.15440097
44	0x3de7960d	0.11307917
45	0x3e8a557d	0.27018347
46	0x3e8ce6c6	0.27519816
47	0x3dc77960	0.09739947
48	0x3efd0c0c	0.49423254
49	0x3e2a3072	0.16620043
50	0x3ecb1952	0.39667755
51	0x3dffa4b6	0.12482588
52	0x3dcaf4a8	0.09909946
53	0x3e8cbf91	0.27489904
54	0xbe46a3b6	-0.19398388
55	0xbe0787f2	-0.13235453
56	0x3ec0da78	0.37666678
57	0x3e94b5a7	0.2904484
58	0x3e14511c	0.14484066
59	0xbdb3bc75	-0.0877618
60	0x3e74b1c1	0.23895933
61	0x3d2a4f26	0.041579388
62	0x3e9bf1d3	0.30457935
63	0xbef3bfdc	-0.47607315
64	0x3edc148e	0.42984432
65	0x3da739d0	0.08165324
66	0x3d618a91	0.055063788
67	0x3e96a5d8	0.29423404
68	0x3e5adfee	0.21374485
69	0x3ef4017e	0.47657388
70	0xbdeba35f	-0.1150577
71	0xbefb2172	-0.49048954
72	0x3dadc5da	0.08485003
73	0x3d8b3b79	0.06798453
74	0xbe80238a	-0.25027114
75	0x3ec5ea51	0.38655332
76	0x3f5a12f2	0.8518516
77	0xbbf46f83	-0.0074595823
78	0x3ec5a05a	0.385989
79	0x3e8d51b4	0.27601397
80	0xbece9ded	-0.40354863
81	0xbe9e3f8a	-0.3090785
82	0x3e4286cb	0.18996732
83	0x3eeac604	0.458542
84	0x3df018ec	0.117235035
85	0x3ea7ebb0	0.32797003
86	0xbe576a43	-0.2103663
87	0x3ea811cf	0.32826087
88	0xbd4adeb0	-0.049528778
89	0x3e7b6dd2	0.24553612
90	0x3e05d433	0.13069229
91	0xbddfdc63	-0.10930707
92	0x3ea266ec	0.31719148
93	0x3ebb7a92	0.3661695
94	0x3e3195e5	0.17342336
95	0x3e1e78ee	0.15475819
96	0x3ef10b9d	0.47079173
97	0x3d8f63f5	0.07001487
98	0x3dd9465b	0.10609122
99	0x3e3ff2d1	0.18744971
100	0x3f11f77c	0.57018256
101	0x3e1697f9	0.1470641
102	0x3e1828bb	0.14859287
103	0x3e4c73c1	0.19966032
104	0x3eb3b36f	0.35097834
105	0x3ea6d4cb	0.32584223
106	0x3dcc06fd	0.099622704
107	0xba983e75	-0.0011615293
108	0x3e876b6f	0.26449153
109	0xbd646131	-0.05575675
110	0x3e174672	0.14772967
111	0x3ecd3072	0.40076023
112	0x3e9ada12	0.302445
113	0x3ea8f06a	0.3299592
114	0x3e35fc7d	0.17772098
115	0x3efa2a07	0.4886019
116	0xbe30c77f	-0.17263602
117	0x3e899ae5	0.26875988
118	0xbe4574a8	-0.19282782
119	0x3e3a846a	0.18214574
120	0x3e54437a	0.20728865
121	0x3ece07b4	0.40240252
122	0x3e4c3a71	0.19944169
123	0x3e35e16a	0.1776177
124	0x3e60ee63	0.21965937
125	0x3e1dac40	0.1539774
126	0x3e48e382	0.19618037
127	0x3d55f8ec	0.052239344
128	0x3e40237d	0.18763538
129	0x3ee1f9df	0.4413595
130	0x3e9007aa	0.28130847
131	0x3c91ddcc	0.017805956
132	0x3e9eeed7	0.31041595
133	0x3d2f4ceb	0.042797964
134	0x3eae8898	0.34088588
135	0x3eabdeb1	0.33568338
136	0x3d8a9138	0.067659795
137	0x3e525dc1	0.20543577
138	0x3e37de87	0.17955981
139	0xbe264fa7	-0.16241322
140	0x3ed1bd12	0.40964562
141	0x3ea751c8	0.32679582
142	0x3e075243	0.13214974
143	0xbe0a2e30	-0.13494182
144	0x3e8d6163	0.27613363
145	0x3d0f742c	0.0350229
146	0x3f31ade1	0.69405943
147	0x3e186df6	0.14885697
148	0x3f3952fd	0.72392255
149	0x3e9374a2	0.2879992
150	0x3e3aa671	0.18227555
151	0x3e9c34b0	0.30508947
152	0x3dfcfee4	0.12353304
153	0x3e104f4b	0.14092748
154	0x3f77d5e2	0.96810734
155	0x3d6b0526	0.057377957
156	0x3e09d7d7	0.13461243
157	0xbd07c545	-0.033147115
158	0x3e00fa13	0.12595396
159	0x3e23fdc8	0.16014779
160	0x3e6a8734	0.22903138
161	0x3dcf72b4	0.101293
162	0x3dfadef2	0.12249555
163	0xbdc2b451	-0.09507049
164	0xbeafc8f1	-0.34332994
165	0x3e570529	0.20998062
166	0x3daaf6ad	0.08347831
167	0x3e9d041c	0.30667198
168	0xbe27a2ea	-0.1637074
169	0x3ea8d1d1	0.32972577
170	0x3e87e322	0.26540476
171	0x3e8755d9	0.26432684
172	0x3e56bef1	0.20971276
173	0x3e8b085d	0.27154818
174	0x3de2248c	0.11042127
175	0x3e0c6f32	0.13714293
176	0x3eaf1fab	0.34203848
177	0xbf043879	-0.5164867
178	0xbe158c45	-0.1460429
179	0xbe3c93df	-0.18415783
180	0x3e9d5a61	0.30733016
181	0x3e96c97a	0.2945059
182	0xbcd294ae	-0.025705662
183	0x3ea98456	0.33108777
184	0x3e7f6964	0.24942547
185	0xbe1691b7	-0.14704023
186	0xbdfed05a	-0.12442084
187	0x3e9ed6b8	0.31023192
188	0x3e5ce705	0.21572502
189	0x3e1a7f5c	0.15087646
190	0x3ec8408b	0.39111742
191	0x3e648a3a	0.22318354
192	0x3ebe998d	0.37226525
193	0xbdf60f66	-0.12014656
194	0x3e86a4b3	0.2629753
195	0x3e81c7e2	0.2534781
196	0x3e6763b9	0.22596635
197	0x3e28c4ea	0.16481367
198	0x3e8a4c66	0.27011412
199	0x3d1c0bf9	0.038097356
200	0xbf0f6212	-0.5600902
201	0xbe866022	-0.2624522
202	0x3e838135	0.25684515
203	0x3e050205	0.12989052
204	0xbec3d0fe	-0.38245386
205	0xbe8b48e8	-0.2720406
206	0xbef2cc24	-0.47421372
207	0xbd0b3861	-0.033989314
208	0xbec28dae	-0.37998718
209	0x3d8041d9	0.062625594
210	0xbe5d5caa	-0.2161738
211	0x3dd3e423	0.10346248
212	0x3d4df2d6	0.050280415
213	0x3d9959aa	0.07487805
214	0x3e094a38	0.13407218
215	0x3928c3b1	0.00016094629
216	0xbed0de75	-0.4079472
217	0x3c5f119e	0.01361504
218	0xbc2e2745	-0.01062948
219	0x3cc6954e	0.024241116
220	0xbeb35522	-0.3502589
221	0xbe689399	-0.22712554
222	0xbef6948b	-0.48160204
223	0x3ea73c7e	0.3266334
224	0xbe6ea8a6	-0.23306522
225	0xbf037bb7	-0.5136065
226	0xbf1d6fb6	-0.6149858
227	0xbe8fac74	-0.2806126
228	0xbd2e723f	-0.042589422
229	0x3e60ee83	0.21965985
230	0xbe3bcaaf	-0.18339036
231	0xbda02031	-0.0781864
232	0x3e3b50bd	0.18292518
233	0xbdd5ef2d	-0.1044601
234	0xbec963d7	-0.39333984
235	0xbe021234	-0.12702256
236	0xbe91b9ae	-0.28461975
237	0x3e5a44f6	0.21315369
238	0x3e30a9c9	0.17252268
239	0x3e203793	0.156462
240	0x3c25325c	0.010082807
241	0xbe63da0e	-0.2225115
242	0x3ee9b802	0.456482
243	0x3c238993	0.009981531
244	0xbd0a9662	-0.033834822
245	0xbeafa609	-0.34306362
246	0xbe8a2f2e	-0.2698912
247	0x3be36f00	0.0069407225
248	0xbf01c0e4	-0.5068495
249	0xbce99524	-0.028513499
250	0xbe4aa072	-0.19787768
251	0x3e4b593a	0.19858256
252	0x3e2db4da	0.1696352
253	0xbdefc683	-0.11707785
254	0xbe4ba215	-0.19886048
255	0xbe0735a9	-0.13204063

l1.bias f4 [8]
0	0x3f2c074a	0.6719862
1	0x3f3535bf	0.70785135
2	0x3f3473b1	0.7048903
3	0x3de737f6	0.112899706
4	0x3f0bf27c	0.54666877
5	0x3d84fec3	0.064939044
6	0x3e7b92ef	0.2456777
7	0x3de43ef6	0.11144821

l2.weight f4 [8, 8]
0	0x3e14acb9	0.14519013
1	0xbeb11306	-0.34584826
2	0x3e164cc5	0.14677723
3	0x3dec824f	0.11548292
4	0x3e0d663d	0.13808532
5	0xbea59619	-0.32341078
6	0x3d4b091d	0.049569238
7	0x3c7b0c83	0.015322807
8	0x400e2de9	2.2215521
9	0xbd8ca808	-0.06867987
10	0x3f9a6e83	1.2064976
11	0xbd2d6403	-0.042331707
12	0x3f93200a	1.1494153
13	0x3f648719	0.8926864
14	0xbfbfa23c	-1.4971385
15	0x3e8f05cf	0.2793412
16	0x3f238e97	0.6388945
17	0x3ffadadf	1.9598044
18	0xbfd3dfa8	-1.655263
19	0x3ffbb0aa	1.9663289
20	0xbf55388a	-0.83289397
21	0x3f6edb01	0.93302923
22	0xbe150698	-0.14553297
23	0x3f27b7b3	0.6551468
24	0x3fb226c9	1.3918086
25	0x3f0428b2	0.51624596
26	0x3fd689e9	1.6760837
27	0xbf8f679c	-1.1203494
28	0x3f89984c	1.0749602
29	0xbfbdb7ef	-1.4821757
30	0xbf3a5c38	-0.72796965
31	0xbfb1620e	-1.3858049
32	0x3d866afa	0.06563373
33	0xbe5eb70b	-0.21749513
34	0x3daf8a65	0.085713185
35	0xbbbc696a	-0.005749871
36	0xbdd62fcd	-0.10458336
37	0x3dcdce32	0.10049094
38	0xbe256d81	-0.16155054
39	0x3da3c1f6	0.079959795
40	0x3de05512	0.10953726
41	0xbe60cdad	-0.21953459
42	0xbea0bb4b	-0.31392893
43	0xbe835dfd	-0.25657645
44	0x3e3190b6	0.17340359
45	0xbea95841	-0.33075145
46	0xbe70b0e0	-0.23504972
47	0xbad3863d	-0.0016138029
48	0x3fadf3a4	1.3589978
49	0xbeec37d7	-0.46136352
50	0xbef977fc	-0.48724353
51	0x3f87dd7f	1.061447
52	0xbf96d1ba	-1.1782753
53	0x3fcd6628	1.6046801
54	0xbfa112dc	-1.258388
55	0x3f47ba8d	0.7801903
56	0x3f7f3485	0.99689513
57	0x3fec887b	1.847915
58	0x3f3c0f70	0.73461056
59	0xbc8576d5	-0.016292015
60	0x3fb6eb4a	1.4290555
61	0xbfb0f94f	-1.3826083
62	0xbf03d6c1	-0.51499563
63	0xbf89906b	-1.0747198

l2.bias f4 [8]
0	0xbe8faa99	-0.28059843
1	0x3e0583c0	0.1303854
2	0x3ee24c77	0.44198963
3	0x3e8d713f	0.27625462
4	0xbebbda50	-0.36689997
5	0xbeabea60	-0.3357725
6	0x3c18235b	0.009285773
7	0x3ebeb955	0.37250772

l3.weight f4 [4, 8]
0	0x3e010620	0.12599993
1	0xbfe9c108	-1.8262033
2	0x3f40a160	0.7524624
3	0xbf98d8df	-1.1941184
4	0xbd6c2879	-0.057655785
5	0x3e12069d	0.14260335
6	0xbf91a4bd	-1.1378399
7	0x3c1e331f	0.009655743
8	0xbd8c4530	-0.06849134
9	0x3ee40666	0.44536132
10	0xbeb28fbe	-0.34875292
11	0xbf3ba2e7	-0.73295444
12	0xbe5e7aec	-0.21726578
13	0xbdf5c646	-0.12000708
14	0x3fa62e0c	1.2982802
15	0xc00a47fa	-2.160643
16	0x3da0b70b	0.07847413
17	0x3f075e7f	0.52878565
18	0xbffb07eb	-1.9611791
19	0x3ffcb98f	1.9744128
20	0x3e20031c	0.15626186
21	0xbea255d7	-0.31706116
22	0xbf6ee7c8	-0.9332242
23	0x3f78b36d	0.9714878
24	0x3e5dd40e	0.21662924
25	0xbfcf824f	-1.6211642
26	0xbfa6bcf6	-1.3026416
27	0xbfad5a3e	-1.3543165
28	0xbe4e64a0	-0.20155573
29	0x3eb11019	0.34582594
30	0xbf177120	-0.5915699
31	0xc011e56d	-2.279628

l3.bias f4 [4]
0	0xc0c15bb8	-6.042446
1	0xc0d6a52f	-6.707664
2	0xc0d2d107	-6.588016
3	0x40e7f348	7.2484474
