base learn/base/beta2/Jarvis/jarvisnlp/TrainData.pth (torch, 4119 bytes, 6 tensors)

l1.weight f4 [8, 35]
0	0x3e5fe296	0.2186378
1	0x3f133f48	0.57518435
2	0x3e2cb0d9	0.16864337
3	0xbeb6a7fd	-0.3567504
4	0x3d16c828	0.036811978
5	0x3d3fe847	0.046852376
6	0xbef25d8a	-0.4733699
7	0xbe98cca8	-0.2984364
8	0xbeaea85a	-0.34112817
9	0x3e9c37da	0.3051136
10	0x3e9de614	0.30839598
11	0x3e54f194	0.2079528
12	0x3d071553	0.03297932
13	0x3e0c322a	0.13691011
14	0x3e5151a4	0.204413
15	0xbcf6a682	-0.030108694
16	0x3ebd7c1b	0.37008747
17	0x3e144c44	0.14482218
18	0x3e303c1e	0.17210433
19	0xbf0aa842	-0.5416299
20	0x3e92173b	0.28533348
21	0x3e2dc5e2	0.16970018
22	0x3b71fe14	0.0036925124
23	0xbec7dd02	-0.39035803
24	0xbea69499	-0.32535246
25	0x3eab9eac	0.33519495
26	0x3e662fa1	0.22479106
27	0xbf06ed74	-0.52706075
28	0xbe2d7035	-0.16937335
29	0x3e95de4d	0.29271165
30	0x3e5c7477	0.21528803
31	0x3e8cc8ab	0.27496848
32	0x3f12a3a2	0.57280934
33	0x3f238698	0.6387725
34	0x3f045ea3	0.51706904
35	0xbe40ba62	-0.188211
36	0xbed8b131	-0.42322686
37	0xbd70aac7	-0.058756616
38	0x3f9c1905	1.2195135
39	0x3e537d8e	0.20653364
40	0xbe3d00f0	-0.18457389
41	0x3dd25b1a	0.102712825
42	0x3e58644b	0.21132009
43	0x3e15e996	0.14639887
44	0x3eccb101	0.39978793
45	0xbe2179bd	-0.15769096
46	0x3ef874e7	0.4852669
47	0x3ea56503	0.32303628
48	0xbbb06fa0	-0.0053844005
49	0x3e439915	0.19101365
50	0x3e0275de	0.12740275
51	0xbb54056a	-0.003235186
52	0xbd29add4	-0.04142554
53	0xbd011d15	-0.031521875
54	0x3f4c3749	0.7977186
55	0xbe83f0bf	-0.25769612
56	0xbe8023fd	-0.25027457
57	0x3f1b7923	0.60731715
58	0x3f1ec1da	0.62014544
59	0x3f38557e	0.7200545
60	0xbeda6bab	-0.4266027
61	0xbe7b4692	-0.24538639
62	0x3f187644	0.5955546
63	0x3f4a4cb7	0.7902331
64	0x3e7faa6d	0.24967356
65	0x3eadae4e	0.33922046
66	0xbe5cd557	-0.21565758
67	0xbecb9412	-0.39761406
68	0xbe31885c	-0.17337173
69	0xbe00fb7a	-0.1259593
70	0xbf060a76	-0.5235971
71	0xbf22ad45	-0.6354564
72	0x3d9872e3	0.07443788
73	0xbf118c61	-0.56854826
74	0x3eed3cea	0.46335536
75	0xbeb3b43e	-0.3509845
76	0xbf7bf67d	-0.98422986
77	0xbebbacd5	-0.36655298
78	0xbebcf891	-0.3690839
79	0x3f2622b1	0.64896685
80	0xbd5c04ef	-0.053715643
81	0x3f1c26d0	0.60996723
82	0x3f19cac8	0.60075045
83	0xbe276185	-0.16345794
84	0x3ee08a09	0.43855312
85	0xbea72ef5	-0.32653013
86	0xbd0f9776	-0.035056554
87	0xbdba5681	-0.090985306
88	0x3eaec108	0.34131646
89	0xbe06061d	-0.1308827
90	0xbea4d10d	-0.32190743
91	0xbe80852d	-0.25101605
92	0xbe9cd862	-0.30633837
93	0xbcb98f12	-0.022651229
94	0xbf0c5edf	-0.5483226
95	0xbe92e11b	-0.28687367
96	0xbe435629	-0.19075836
97	0x3f0343de	0.5127543
98	0xbe9198e5	-0.28436962
99	0x3eb596a9	0.35466507
100	0x3ec2b2bf	0.38026997
101	0xbe52d577	-0.20589243
102	0xbf35ce92	-0.71018326
103	0xbeaf6663	-0.34257802
104	0xbdbd3ca4	-0.09240082
105	0x3ef1cf2f	0.4722838
106	0xbf193a38	-0.5985446
107	0x3f19e9e5	0.6012252
108	0xbe3f12e8	-0.18659556
109	0xbdb7b9f8	-0.089710176
110	0x3ed95c80	0.42453384
111	0x3edf71c0	0.43641472
112	0x3f2763ce	0.65386665
113	0x3f0c6e41	0.54855734
114	0xbea41e51	-0.3205438
115	0xbd649a66	-0.05581131
116	0xbe9f26e5	-0.31084362
117	0xbe9ee7b9	-0.31036165
118	0xbd6deb33	-0.05808563
119	0xbe5b6182	-0.21423915
120	0x3f671088	0.902596
121	0x3dbc7bae	0.092032775
122	0xbdbbcf08	-0.091703475
123	0x3e09360c	0.13399523
124	0xbcc7e79d	-0.024402434
125	0xbd06ffbe	-0.03295874
126	0xbca076da	-0.019587923
127	0x3e4500c2	0.1923857
128	0x3d16e0a7	0.03683534
129	0x3e3e8d7d	0.18608661
130	0x3ee7e2e2	0.45290285
131	0xbdd2fa48	-0.103016436
132	0xbf0b0f1f	-0.5431995
133	0xbdb89bb1	-0.09014071
134	0x3e8f3c9c	0.2797593
135	0x3e4215fc	0.18953699
136	0x3c350b5f	0.011050074
137	0xbf2a160b	-0.66439885
138	0x3ece1867	0.40252993
139	0xbe33ef99	-0.17571868
140	0x3bb0eec5	0.0053995573
141	0x3ee0d7a5	0.43914524
142	0x3eea88f7	0.4580762
143	0xbe61b113	-0.22040205
144	0xbde20696	-0.110364124
145	0x3e855bc6	0.2604658
146	0xbeaf4c1a	-0.34237748
147	0xbe5bca52	-0.21463898
148	0xbe83ac02	-0.2571717
149	0x3e6a84de	0.22902247
150	0x3e9fa07d	0.3117713
151	0x3ed7ace3	0.4212409
152	0x3ed9973a	0.4249819
153	0x3ea02ac7	0.31282637
154	0xbde615ed	-0.11234651
155	0x3c9f756b	0.019465169
156	0x3e7ca5be	0.246726
157	0x3ee9667c	0.45586002
158	0x3e828b04	0.25496686
159	0xbe981014	-0.29699767
160	0x3ee1b76c	0.44085252
161	0x3edfe0b8	0.43726134
162	0x3b6c883d	0.0036091947
163	0xbe61ce76	-0.22051415
164	0xbe62cc1d	-0.22148176
165	0x3e8f0d2d	0.2793974
166	0x3ec41d64	0.38303673
167	0xbf068383	-0.5254442
168	0xbe5d5f3f	-0.21618365
169	0x3ee2fe21	0.4433451
170	0x3ed4a565	0.41532436
171	0x3e9d570d	0.30730477
172	0x3f43b069	0.76441056
173	0x3ed058c1	0.40692714
174	0x3efc2792	0.4924894
175	0x3f1ae747	0.6050915
176	0x3ed972ac	0.424703
177	0x3ec37e86	0.38182467
178	0xbebc24e6	-0.367469
179	0xbe0e8f29	-0.13921799
180	0x3e92db3c	0.28682888
181	0x3e81d141	0.2535496
182	0x3f26f81f	0.6522235
183	0x3edea2a6	0.43483466
184	0xbe2c75c2	-0.16841796
185	0x3d97ce4e	0.07412396
186	0xbe2d0d4c	-0.16899604
187	0xbe2d21f2	-0.1690748
188	0x3e8f9a42	0.28047377
189	0xbd00ea18	-0.03147325
190	0x3f5a0ba9	0.8517404
191	0x3e49ce62	0.19707635
192	0x3ecec0d7	0.403815
193	0x3dee62b4	0.1163992
194	0xbec61e9e	-0.38695234
195	0x3e82738a	0.25478774
196	0x3e299029	0.16558899
197	0x3d7604c6	0.060063146
198	0xbeb29bea	-0.34884578
199	0xbe2fca38	-0.17166984
200	0x3ec429cf	0.38313147
201	0x3e759904	0.23984152
202	0xbf0f042a	-0.5586573
203	0xbd9f5c86	-0.07781319
204	0xbc51107c	-0.012760278
205	0x3d467e60	0.048460364
206	0x3e4a6964	0.19766766
207	0x3ed75e5b	0.42064175
208	0x3f10ee58	0.56613684
209	0x3e8de400	0.27713013
210	0xbe807d28	-0.25095487
211	0x3ecdbcc1	0.4018307
212	0x3e9190e3	0.28430852
213	0xbee5f525	-0.44913593
214	0x3ef4af7f	0.47790143
215	0xbdac64a9	-0.08417637
216	0xbf1ea5d1	-0.61971766
217	0xbe9202c6	-0.2851774
218	0xbebf71e5	-0.37391582
219	0x3f0ef229	0.5583826
220	0x3eae5044	0.34045613
221	0x3f0ffecc	0.56248164
222	0x3f12e6a3	0.57383174
223	0x3e12aad4	0.14322978
224	0x3e97ca8f	0.29646727
225	0xbe802317	-0.2502677
226	0x3e89f882	0.2694741
227	0x3e07c7f8	0.13259876
228	0x3e8236b5	0.25432363
229	0xbea6ba64	-0.3256408
230	0x3e23d6a8	0.15999854
231	0x3ed5de59	0.417712
232	0xbe874ef7	-0.26427433
233	0xbef857c9	-0.48504475
234	0xbed468a5	-0.41486087
235	0xbe0ee4f8	-0.13954532
236	0x3ec17862	0.37787157
237	0x3f028fb1	0.51000506
238	0xbdd671e5	-0.104709424
239	0x3ecadae9	0.3962014
240	0x3e96245c	0.29324615
241	0x3e2c3682	0.16817668
242	0x3f0fcf37	0.5617556
243	0x3ecaa94a	0.39582282
244	0x3ec38cd1	0.38193372
245	0xbe4d0d90	-0.20024705
246	0x3f4d7d0f	0.8026895
247	0xbdea0785	-0.114272155
248	0x3f783c77	0.9696726
249	0xbe4fa686	-0.20278367
250	0xbea584ed	-0.32327977
251	0x3d55e2e3	0.05221833
252	0xbed1e657	-0.40996048
253	0x3dd05b03	0.10173609
254	0xbeb32eb9	-0.34996584
255	0x3e314c10	0.17314172

l1.bias f4 [8]
0	0x3ebeccaf	0.37265536
1	0x3f210e9d	0.62912923
2	0x3f23175b	0.6370751
3	0x3eb81635	0.35954443
4	0x3e5e0447	0.21681319
5	0x3e2ce7e4	0.16885334
6	0x3ef5ed3c	0.48032558
7	0x3eb25fe6	0.3483879

l2.weight f4 [8, 8]
0	0xbe5a28a4	-0.21304566
1	0x3fb9909c	1.4497256
2	0xbfa8682a	-1.3156788
3	0x3f8350c5	1.0259024
4	0xbece215d	-0.4025983
5	0x3c820912	0.015873466
6	0xbf25d392	-0.64775956
7	0x3f2375c1	0.63851553
8	0x3f40685c	0.7515924
9	0xbe98fdbc	-0.29881084
10	0xbf1b0316	-0.60551584
11	0x3f685a62	0.90762913
12	0x3f3b7dba	0.7323872
13	0x3f575fc2	0.8413049
14	0x3f11c37a	0.569389
15	0xbead5375	-0.33852735
16	0x3f5933e2	0.8484479
17	0xbf3c6265	-0.7358764
18	0xbf97425a	-1.1817124
19	0x3cecf598	0.028925702
20	0x3f5c84db	0.8614022
21	0x3f7434dd	0.9539316
22	0x3f303d72	0.6884376
23	0x3f520128	0.82033014
24	0xbeb04cd4	-0.34433615
25	0x3b9e65c0	0.004833907
26	0xbe1bab6f	-0.15202115
27	0xbd4c87f0	-0.049934328
28	0x3e01dbf4	0.12681562
29	0xbea9152a	-0.3302396
30	0xbe8cb752	-0.27483612
31	0xbdaf96d4	-0.0857369
32	0xbe69ff75	-0.22851355
33	0xbdbf472c	-0.09339747
34	0xbe1e81b8	-0.15479171
35	0x3d23cff0	0.039993227
36	0xbe119194	-0.1421569
37	0xbe98b4ca	-0.2982543
38	0x3d87f890	0.066392064
39	0xbe1d2fb6	-0.15350232
40	0x3f23665c	0.63828063
41	0x3f2c8c14	0.6740124
42	0x3fb39fbd	1.4033123
43	0xbf55399a	-0.8329102
44	0x3f1eadb9	0.6198383
45	0xbf10ca99	-0.5655914
46	0x3f852ae4	1.0403714
47	0x3ea641bf	0.32472035
48	0x3dcb4048	0.0992437
49	0x3ea04f23	0.31310377
50	0x3fb67937	1.4255742
51	0x3f39c5eb	0.72567624
52	0x3e674a11	0.22586848
53	0xbe9e662e	-0.30937332
54	0x3f44aae0	0.76823235
55	0xbf8520f3	-1.040068
56	0xbf154850	-0.58313465
57	0x3f9f57ba	1.2448647
58	0xbf2278e2	-0.634657
59	0x3f01e951	0.5074664
60	0xbee34658	-0.44389606
61	0x3eb7f084	0.35925686
62	0xbe0607e6	-0.1308895
63	0x3e9ef4bb	0.3104609

l2.bias f4 [8]
0	0x3f2f6eb4	0.68528295
1	0x3e5046bf	0.20339487
2	0xbe036736	-0.1283234
3	0xbe9f8321	-0.3115473
4	0xbdc6c6e4	-0.09705904
5	0x3e4371f1	0.19086434
6	0x3ecab71a	0.3959282
7	0x3f4744d2	0.77839386

l3.weight f4 [4, 8]
0	0xbf57a92c	-0.8424251
1	0xbf0c9e09	-0.5492864
2	0xbf5cf94b	-0.8631789
3	0xbe4761cc	-0.194709
4	0x3e01aba6	0.12663135
5	0x3f9ad2f8	1.2095633
6	0x3f49088f	0.78528684
7	0xbf014150	-0.50490284
8	0x3e8c7b3c	0.2743777
9	0x3ecf680d	0.40509072
10	0x3d8e9c5f	0.06963419
11	0xbe2dde70	-0.16979384
12	0x3e34e3f2	0.17665079
13	0xbfe23adf	-1.7674216
14	0x3ea10cc6	0.31455058
15	0x3e71a0c5	0.23596485
16	0xbfa36db4	-1.2767854
17	0x3d3ac34a	0.0455964
18	0x3f72fbdb	0.9491555
19	0xbe9acf36	-0.30236214
20	0x3eaabe35	0.3334824
21	0x3e3dfccc	0.18553466
22	0xbf76e72b	-0.96446484
23	0xbfc42993	-1.5325187
24	0x3f73a841	0.9517861
25	0xbf91a99c	-1.1379886
26	0xbf37fef7	-0.7187342
27	0xbe01ecef	-0.12688039
28	0xbe128d32	-0.14311674
29	0xbe5ab953	-0.21359758
30	0xbf3a2b4b	-0.7272231
31	0x3f3b205e	0.73096263

l3.bias f4 [4]
0	0xbe26da9b	-0.16294329
1	0xbe7390a8	-0.2378565
2	0xbea916d4	-0.3302523
3	0x3e1f19d1	0.15537192
